AmyBot/DataBase/Tasks.pth (torch, 3607 bytes, 6 tensors)

l1.weight f4 [8, 25]
0.053764895 0.114816256 0.066027686 -0.18071137 -0.04135041 0.023416713 -0.07970252 -0.12479835
-0.054342315 0.11587666 0.073379 0.029698692 -0.122249775 -0.14100988 0.12829758 -0.02516
0.10165019 -0.0778374 -0.10055857 -0.087654136 0.033611245 0.14990407 -0.1386136 -0.041007187
0.034484312 -0.132239 -0.11810968 -0.46044186 0.2693199 -0.4703207 0.46433392 -0.46526957
0.82004535 0.8590791 0.881937 0.5850307 -0.08999557 -0.10704603 -0.13318361 -0.18951783
-0.2839504 -0.43787822 -0.25925973 -0.07035947 0.3177369 -0.1828702 -0.3429306 -0.06128253
-0.060002994 0.07241915 0.11500615 0.51793027 -0.31409022 0.35006037 -0.29868323 0.71478873
-0.31352806 -0.32452396 -0.07199481 -0.30416635 0.70158446 0.60740983 -0.54675853 0.17915076
0.45629773 -0.3428662 -0.3342684 0.13239698 0.3467373 -0.09798897 0.25031367 -0.14397451
0.5767956 0.4984083 0.15315267 -0.10477521 0.5644688 -0.15235992 0.15069197 -0.11156107
-0.19960025 -0.13571285 -0.1125711 -0.11158393 -0.11194913 -0.24548396 0.16235845 -0.32616264
-0.19908659 0.064677 -0.1307099 -0.11156939 -0.16398716 0.13699447 -0.055579618 0.35213214
0.41634804 0.34531513 0.2077876 -0.033712357 0.42653316 0.37068358 0.60260063 0.1869586
0.588758 0.017097482 0.54796755 -0.45655552 -0.6166345 -0.41806838 -0.6995152 0.4420896
0.25393432 0.6667799 0.31720674 0.19328263 0.34897566 0.6429515 0.4341304 -0.25470728
0.52383214 0.24283502 0.26526472 0.237485 0.70721865 0.16892673 -0.19405809 -0.1654164
-0.097262435 -0.09721134 -0.16915648 0.047271222 0.19309033 -0.14024386 0.021403387 -0.12012382
0.15281789 0.12783296 -0.13774976 -0.17527734 -0.011432856 -0.122566484 0.14755107 0.017287344
-0.18802908 0.15689816 -0.18111737 -0.080395035 -0.034946606 -0.10124717 -0.22161253 -0.37719005
0.1774321 -0.064269796 0.18660562 -0.46971178 0.13232934 0.73226684 0.9082563 0.6537057
-0.16242371 -0.074107885 0.330033 -0.18025447 -0.2043116 0.0549226 -0.06572541 0.0757741
-0.21543638 0.5317521 -0.10752849 -0.25044203 -0.113316536 -0.35499477 -0.19943513 0.41235724
0.20445748 -0.35064074 0.3530093 -0.35066068 0.89336604 -0.35043928 0.573999 0.41115552
0.49072063 0.6102218 -0.09102955 -0.40739742 0.3207659 -0.13748366 -0.246769 -0.35065505
0.309593 0.20496188 0.44583443 0.15451303 -0.2803867 0.30351216 0.14119488 0.29935437
00000000: 9438 5c3d c924 eb3d 8639 873d 670c 39be
00000010: 0c5f 29bd 68d4 bf3c 133b a3bd 4796 ffbd
00000020: 0c96 5ebd be50 ed3d bb47 963d ac4a f33c
00000030: 175e fabd e564 10be 7160 033e 581c cebc
00000040: fa2d d03d 3769 9fbd a7f1 cdbd 0384 b3bd
00000050: f2ab 093d 7480 193e b9f0 0dbe 27f7 27bd
00000060: 6c3f 0d3d a969 07be 7de3 f1bd 09bf ebbe
00000070: 4ce4 893e e0cd f0be 2dbd ed3e d037 eebe
00000080: 7eee 513f 9cec 5b3f a0c6 613f 92c4 153f
00000090: 994f b8bd f33a dbbd 4961 08be f610 42be
000000a0: f261 91be 9331 e0be b1bd 84be a018 90bd
000000b0: 69ae a23e 5342 3bbe 9994 afbe 6403 7bbd
000000c0: b3c5 75bd 7e50 943d 5888 eb3d 1497 043f
000000d0: 6fd0 a0be 1d3b b33e 02ed 98be 65fc 363f
000000e0: c086 a0be 0128 a6be 0472 93bd b1bb 9bbe
000000f0: 0a9b 333f 367f 1b3f 5ef8 0bbf 4c73 373e
00000100: db9f e93e 298c afbe 3a25 abbe 1393 073e
00000110: 8d87 b13e 71ae c8bd 1d29 803e 0e6e 13be
00000120: e0a8 133f 5f2f ff3e 0ed4 1c3e 6394 d6bd
00000130: 0781 103f 3d04 1cbe ff4e 1a3e 217a e4bd
00000140: 0264 4cbe 4ff8 0abe ad8b e6bd 1e86 e4bd
00000150: 9645 e5bd 2660 7bbe 4b41 263e cafe a6be
00000160: 5bdd 4bbe 6075 843d d1d8 05be 7e7e e4bd
00000170: 40ec 27be 4748 0c3e 74a7 63bd aa4a b43e
00000180: 922b d53e 25cd b03e 46c6 543e f815 0abd
00000190: 8e62 da3e 3dca bd3e 0944 1a3f 1372 3f3e
000001a0: d8b8 163f 0510 8c3c 9a47 0c3f a5c1 e9be
000001b0: c2db 1dbf 0f0d d6be 6e13 33bf 9159 e23e
000001c0: ae03 823e 16b2 2a3f ec68 a23e e2eb 453e
000001d0: f0ac b23e 7898 243f 5746 de3e fe68 82be
000001e0: dd19 063f bea9 783e c7d0 873e 452f 733e
000001f0: 480c 353f 21fb 2c3e 2ab7 46be eb62 29be
00000200: 8731 c7bd bd16 c7bd 5b37 2dbe 789f 413d
00000210: 79b9 453e 169c 0fbe 2856 af3c 7a03 f6bd
00000220: 4b7c 1c3e a5e6 023e 460e 0dbe e77b 33be
00000230: e050 3bbc 2304 fbbd a117 173e 309e 8d3c
00000240: b28a 40be e9a9 203e d576 39be 27a6 a4bd
00000250: 2c24 0fbd ad5a cfbd 65ee 62be 0e1f c1be
00000260: c3b0 353e e29f 83bd 8b15 3f3e 107e f0be
00000270: 5881 073e d775 3b3f 7c83 683f 4259 273f
00000280: 6752 26be e0c5 97bd 16fa a83e a194 38be
00000290: 0f37 51be 85f6 603d 0b9b 86bd 742f 9b3d
000002a0: 5b9b 5cbe e820 083f e637 dcbd f039 80be
000002b0: 8012 e8bd e0c1 b5be b938 4cbe 7d20 d33e
000002c0: 4d5d 513e 2f87 b3be a3bd b43e cc89 b3be
000002d0: a3b3 643f c76c b3be 99f1 123f fa82 d23e
000002e0: bc3f fb3e 7f37 1c3f b36d babd 6596 d0be
000002f0: 6e3b a43e 84c8 0cbe 03b1 7cbe 0f89 b3be
00000300: f982 9e3e 87e1 513e 6944 e43e aa38 1e3e
00000310: d88e 8fbe f265 9b3e 6495 103e fa44 993e

l1.bias f4 [8]
-0.16881312 0.52231514 0.34684873 0.111573786 0.69508183 -0.1956116 0.74096537 0.3506497
00000000: 59dd 2cbe 72b6 053f 2896 b13e cc80 e43d
00000010: e2f0 313f 684e 48be e8af 3d3f 5c88 b33e

l2.weight f4 [8, 8]
-0.338875 0.52820987 0.8247095 -0.3058434 -0.082900725 -0.3437125 -0.8755548 0.67057943
-0.10157812 -0.9724509 0.43642333 0.23827447 0.6971024 -0.19220416 -0.73672664 0.3068566
0.18410845 0.8915525 -0.029961217 -0.5796762 -0.2266188 -0.33628842 1.0762441 0.88167536
-0.35781157 0.80738986 0.7410694 -0.4395433 -0.79513556 0.09295562 0.844135 0.89222467
0.038415547 -0.5251834 0.22337475 -0.069736406 1.0594573 -0.21743432 0.38749975 -0.8519319
0.33731017 -0.022383336 0.759801 0.5029605 0.4800028 -0.1569868 -0.5665162 0.92954606
-0.11176937 -0.081973925 0.9466219 0.2781013 0.28547406 -0.1311349 -0.42036113 0.71339613
0.09986858 -0.44405124 -0.16814809 0.06888013 1.0697882 -0.1890671 0.18387713 -0.60866785
00000000: 0681 adbe c338 073f 2920 533f 8297 9cbe
00000010: dbc7 a9bd 16fb afbe 5c24 60bf 18ab 2b3f
00000020: 3008 d0bd 8bf2 78bf e172 df3e 39fe 733e
00000030: 4e75 323f 2bd1 44be 1e9a 3cbf 4f1c 9d3e
00000040: ed86 3c3e c93c 643f 3a71 f5bc a965 14bf
00000050: c20e 68be ff2d acbe 5ec2 893f 7ab5 613f
00000060: 1433 b7be 1ab1 4e3f b9b6 3d3f d20b e1be
00000070: 018e 4bbf 845f be3d 3b19 583f d668 643f
00000080: 9f59 1d3d 6b72 06bf 5abc 643e f6d1 8ebd
00000090: 4c9c 873f 1aa7 5ebe 5e66 c63e 3618 5abf
000000a0: ebb3 ac3e 425d b7bc 5182 423f 05c2 003f
000000b0: edc2 f53e 26c1 20be 3507 11bf bbf6 6d3f
000000c0: 57e7 e4bd f2e1 a7bd d055 723f 4b63 8e3e
000000d0: a829 923e 3a48 06be 9339 d7be 21a1 363f
000000e0: e687 cc3d af5a e3be 032f 2cbe 0711 8d3d
000000f0: d2ee 883f ce9a 41be 494a 3c3e a8d1 1bbf

l2.bias f4 [8]
-0.09707096 -0.18219747 0.71903473 0.18263754 0.6109381 -0.12630327 -0.01952076 0.6427763
00000000: 24cd c6bd f991 3abe a912 383f 5605 3b3e
00000010: 7066 1c3f a555 01be 00ea 9fbc fd8c 243f

l3.weight f4 [4, 8]
-0.24886954 0.75854284 -1.0189137 -0.41598478 0.15406524 0.96058387 0.29070517 -0.08144976
-1.1847126 -0.63948274 0.18762547 -0.61348224 1.160244 -0.7348782 -1.0733509 1.0103661
1.2902153 -1.3487335 -0.037165545 0.27539098 -1.0909437 0.6400549 0.9119523 -0.9516487
-0.8862721 -0.31749213 0.9670775 0.7528013 -1.0121758 -0.92475003 -0.99206465 -0.8592561
00000000: a8d7 7ebe dd2f 423f c46b 82bf f5fb d4be
00000010: 47c3 1d3e d3e8 753f 4fd7 943e 22cf a6bd
00000020: aaa4 97bf 24b5 23bf e420 403e 2c0d 1dbf
00000030: e082 943f fa20 3cbf 9063 89bf ad53 813f
00000040: c625 a53f 4da3 acbf e63a 18bd 0c00 8d3e
00000050: 0ba4 8bbf a3da 233f b575 693f 409f 73bf
00000060: bae2 62bf 548e a2be 6492 773f 96b7 403f
00000070: fa8e 81bf 6bbc 6cbf f3f7 7dbf 35f8 5bbf

l3.bias f4 [4]
-0.049417634 0.4017691 -0.29083356 0.1447404
00000000: 256a 4abd aeb4 cd3e 23e8 94be d436 143e
